…
          "text": [
            "Some weights of BertForTokenClassification were not initialized from the model checkpoint at bert-base-uncased and are newly initialized: ['classifier.bias', 'classifier.weight']\n",
            "You should probably TRAIN this model on a down-stream task to be able to use it for predictions and inference.\n"
          ]
        },
        {
          "data": {
            "text/plain": [
              "BertForTokenClassification(\n",
              "  (bert): BertModel(\n",
              "    (embeddings): BertEmbeddings(\n",
              "      (word_embeddings): Embedding(30522, 768, padding_idx=0)\n",
              "      (position_embeddings): Embedding(512, 768)\n",
              "      (token_type_embeddings): Embedding(2, 768)\n",
              "      (LayerNorm): LayerNorm((768,), eps=1e-12, elementwise_affine=True)\n",
              "      (dropout): Dropout(p=0.1, inplace=False)\n",
              "    )\n",
              "    (encoder): BertEncoder(\n",
              "      (layer): ModuleList(\n",
              "        (0-11): 12 x BertLayer(\n",
              "          (attention): BertAttention(\n",
              "            (self): BertSelfAttention(\n",
              "              (query): Linear(in_features=768, out_features=768, bias=True)\n",
              "              (key): Linear(in_features=768, out_features=768, bias=True)\n",
              "              (value): Linear(in_features=768, out_features=768, bias=True)\n",
              "              (dropout): Dropout(p=0.1, inplace=False)\n",
              "            )\n",
              "            (output): BertSelfOutput(\n",
              "              (dense): Linear(in_features=768, out_features=768, bias=True)\n",
              "              (LayerNorm): LayerNorm((768,), eps=1e-12, elementwise_affine=True)\n",
              "              (dropout): Dropout(p=0.1, inplace=False)\n",
              "            )\n",
              "          )\n",
              "          (intermediate): BertIntermediate(\n",
              "            (dense): Linear(in_features=768, out_features=3072, bias=True)\n",
              "            (intermediate_act_fn): GELUActivation()\n",
              "          )\n",
              "          (output): BertOutput(\n",
              "            (dense): Linear(in_features=3072, out_features=768, bias=True)\n",
              "            (LayerNorm): LayerNorm((768,), eps=1e-12, elementwise_affine=True)\n",
              "            (dropout): Dropout(p=0.1, inplace=False)\n",
              "          )\n",
              "        )\n",
              "      )\n",
              "    )\n",
              "  )\n",
              "  (dropout): Dropout(p=0.1, inplace=False)\n",
              "  (classifier): Linear(in_features=768, out_features=11, bias=True)\n",
              ")"
            ]
          },
          "execution_count": 75,
          "metadata": {},
          "output_type": "execute_result"
        }
      ],
      "source": [
        "model = BertForTokenClassification.from_pretrained('bert-base-uncased',\n",
        "                                                   num_labels=len(id2label),\n",
…
